{"backend": "tensorflow", "config": {"layers": [{"name": "context", "config": {"batch_input_shape": [null, null], "sparse": false, "dtype": "float32", "name": "context"}, "class_name": "InputLayer", "inbound_nodes": []}, {"name": "question", "config": {"batch_input_shape": [null, null], "sparse": false, "dtype": "float32", "name": "question"}, "class_name": "InputLayer", "inbound_nodes": []}, {"name": "context_embeddings", "config": {"embeddings_initializer": {"config": {"minval": -0.05, "maxval": 0.05, "seed": null}, "class_name": "RandomUniform"}, "output_dim": 100, "trainable": false, "dtype": "float32", "name": "context_embeddings", "embeddings_regularizer": null, "batch_input_shape": [null, null], "embeddings_constraint": null, "mask_zero": false, "input_length": null, "activity_regularizer": null, "input_dim": 42243}, "class_name": "Embedding", "inbound_nodes": [[["context", 0, 0, {}]]]}, {"name": "question_embeddings", "config": {"embeddings_initializer": {"config": {"minval": -0.05, "maxval": 0.05, "seed": null}, "class_name": "RandomUniform"}, "output_dim": 100, "trainable": false, "dtype": "float32", "name": "question_embeddings", "embeddings_regularizer": null, "batch_input_shape": [null, null], "embeddings_constraint": null, "mask_zero": false, "input_length": null, "activity_regularizer": null, "input_dim": 14839}, "class_name": "Embedding", "inbound_nodes": [[["question", 0, 0, {}]]]}, {"name": "context_lstm", "config": {"trainable": true, "units": 100, "bias_initializer": {"config": {}, "class_name": "Zeros"}, "implementation": 1, "use_bias": true, "unit_forget_bias": true, "dropout": 0.0, "return_sequences": false, "bias_constraint": null, "return_state": true, "recurrent_activation": "hard_sigmoid", "recurrent_initializer": {"config": {"seed": null, "gain": 1.0}, "class_name": "Orthogonal"}, "go_backwards": false, "recurrent_constraint": null, "stateful": false, "recurrent_dropout": 0.0, "name": "context_lstm", "unroll": false, "kernel_initializer": {"config": {"scale": 1.0, "mode": "fan_avg", "distribution": "uniform", "seed": null}, "class_name": "VarianceScaling"}, "kernel_regularizer": null, "activity_regularizer": null, "activation": "tanh", "recurrent_regularizer": null, "kernel_constraint": null, "bias_regularizer": null}, "class_name": "LSTM", "inbound_nodes": [[["context_embeddings", 0, 0, {}]]]}, {"name": "question_lstm", "config": {"trainable": true, "units": 100, "bias_initializer": {"config": {}, "class_name": "Zeros"}, "implementation": 1, "use_bias": true, "unit_forget_bias": true, "dropout": 0.0, "return_sequences": false, "bias_constraint": null, "return_state": true, "recurrent_activation": "hard_sigmoid", "recurrent_initializer": {"config": {"seed": null, "gain": 1.0}, "class_name": "Orthogonal"}, "go_backwards": false, "recurrent_constraint": null, "stateful": false, "recurrent_dropout": 0.0, "name": "question_lstm", "unroll": false, "kernel_initializer": {"config": {"scale": 1.0, "mode": "fan_avg", "distribution": "uniform", "seed": null}, "class_name": "VarianceScaling"}, "kernel_regularizer": null, "activity_regularizer": null, "activation": "tanh", "recurrent_regularizer": null, "kernel_constraint": null, "bias_regularizer": null}, "class_name": "LSTM", "inbound_nodes": [[["question_embeddings", 0, 0, {}]]]}, {"name": "concatenate_lstm_states_h", "config": {"trainable": true, "name": "concatenate_lstm_states_h", "axis": -1}, "class_name": "Concatenate", "inbound_nodes": [[["context_lstm", 0, 1, {}], ["question_lstm", 0, 1, {}]]]}, {"name": "concatenate_lstm_states_c", "config": {"trainable": true, "name": "concatenate_lstm_states_c", "axis": -1}, "class_name": "Concatenate", "inbound_nodes": [[["context_lstm", 0, 2, {}], ["question_lstm", 0, 2, {}]]]}], "name": "model_23", "input_layers": [["context", 0, 0], ["question", 0, 0]], "output_layers": [["concatenate_lstm_states_h", 0, 0], ["concatenate_lstm_states_c", 0, 0]]}, "class_name": "Model", "keras_version": "2.2.4"}